…
   "cell_type": "code",
   "execution_count": 200,
   "metadata": {
    "colab": {
     "base_uri": "https://localhost:8080/"
    },
    "id": "1-ARwN9723rd",
    "outputId": "2728fb01-dac9-42bf-bcbe-1313b241e526"
   },
   "outputs": [
    {
     "name": "stdout",
     "output_type": "stream",
     "text": [
      "Model: \"sequential_13\"\n",
      "_________________________________________________________________\n",
      "Layer (type)                 Output Shape              Param #   \n",
      "=================================================================\n",
      "conv2d_78 (Conv2D)           (None, 44, 44, 64)        1664      \n",
      "_________________________________________________________________\n",
      "conv2d_79 (Conv2D)           (None, 40, 40, 64)        102464    \n",
      "_________________________________________________________________\n",
      "batch_normalization_52 (Batc (None, 40, 40, 64)        256       \n",
      "_________________________________________________________________\n",
      "max_pooling2d_39 (MaxPooling (None, 20, 20, 64)        0         \n",
      "_________________________________________________________________\n",
      "activation_65 (Activation)   (None, 20, 20, 64)        0         \n",
      "_________________________________________________________________\n",
      "conv2d_80 (Conv2D)           (None, 16, 16, 128)       204928    \n",
      "_________________________________________________________________\n",
      "conv2d_81 (Conv2D)           (None, 12, 12, 128)       409728    \n",
      "_________________________________________________________________\n",
      "batch_normalization_53 (Batc (None, 12, 12, 128)       512       \n",
      "_________________________________________________________________\n",
      "max_pooling2d_40 (MaxPooling (None, 6, 6, 128)         0         \n",
      "_________________________________________________________________\n",
      "activation_66 (Activation)   (None, 6, 6, 128)         0         \n",
      "_________________________________________________________________\n",
      "conv2d_82 (Conv2D)           (None, 4, 4, 256)         295168    \n",
      "_________________________________________________________________\n",
      "conv2d_83 (Conv2D)           (None, 2, 2, 256)         590080    \n",
      "_________________________________________________________________\n",
      "batch_normalization_54 (Batc (None, 2, 2, 256)         1024      \n",
      "_________________________________________________________________\n",
      "max_pooling2d_41 (MaxPooling (None, 1, 1, 256)         0         \n",
      "_________________________________________________________________\n",
      "activation_67 (Activation)   (None, 1, 1, 256)         0         \n",
      "_________________________________________________________________\n",
      "flatten_18 (Flatten)         (None, 256)               0         \n",
      "_________________________________________________________________\n",
      "dense_37 (Dense)             (None, 128)               32896     \n",
      "_________________________________________________________________\n",
      "batch_normalization_55 (Batc (None, 128)               512       \n",
      "_________________________________________________________________\n",
      "activation_68 (Activation)   (None, 128)               0         \n",
      "_________________________________________________________________\n",
      "dropout_16 (Dropout)         (None, 128)               0         \n",
      "_________________________________________________________________\n",
      "dense_38 (Dense)             (None, 7)                 903       \n",
      "_________________________________________________________________\n",
      "activation_69 (Activation)   (None, 7)                 0         \n",
      "=================================================================\n",
      "Total params: 1,640,135\n",
      "Trainable params: 1,638,983\n",
      "Non-trainable params: 1,152\n",
      "_________________________________________________________________\n"
     ]
    }
   ],
   "source": [
    "model.compile(optimizer='Adam',\n",
    "              loss='categorical_crossentropy',\n",
…
      "Model: \"model_10\"\n",
      "__________________________________________________________________________________________________\n",
      "Layer (type)                    Output Shape         Param #     Connected to                     \n",
      "==================================================================================================\n",
      "input_14 (InputLayer)           [(None, 48, 48, 1)]  0                                            \n",
      "__________________________________________________________________________________________________\n",
      "concatenate_10 (Concatenate)    (None, 48, 48, 3)    0           input_14[0][0]                   \n",
      "                                                                 input_14[0][0]                   \n",
      "                                                                 input_14[0][0]                   \n",
      "__________________________________________________________________________________________________\n",
      "block1_conv1 (Conv2D)           (None, 48, 48, 64)   1792        concatenate_10[0][0]             \n",
      "__________________________________________________________________________________________________\n",
      "block1_conv2 (Conv2D)           (None, 48, 48, 64)   36928       block1_conv1[0][0]               \n",
      "__________________________________________________________________________________________________\n",
      "block1_pool (MaxPooling2D)      (None, 24, 24, 64)   0           block1_conv2[0][0]               \n",
      "__________________________________________________________________________________________________\n",
      "block2_conv1 (Conv2D)           (None, 24, 24, 128)  73856       block1_pool[0][0]                \n",
      "__________________________________________________________________________________________________\n",
      "block2_conv2 (Conv2D)           (None, 24, 24, 128)  147584      block2_conv1[0][0]               \n",
      "__________________________________________________________________________________________________\n",
      "block2_pool (MaxPooling2D)      (None, 12, 12, 128)  0           block2_conv2[0][0]               \n",
      "__________________________________________________________________________________________________\n",
      "block3_conv1 (Conv2D)           (None, 12, 12, 256)  295168      block2_pool[0][0]                \n",
      "__________________________________________________________________________________________________\n",
      "block3_conv2 (Conv2D)           (None, 12, 12, 256)  590080      block3_conv1[0][0]               \n",
      "__________________________________________________________________________________________________\n",
      "block3_conv3 (Conv2D)           (None, 12, 12, 256)  590080      block3_conv2[0][0]               \n",
      "__________________________________________________________________________________________________\n",
      "block3_pool (MaxPooling2D)      (None, 6, 6, 256)    0           block3_conv3[0][0]               \n",
      "__________________________________________________________________________________________________\n",
      "block4_conv1 (Conv2D)           (None, 6, 6, 512)    1180160     block3_pool[0][0]                \n",
      "__________________________________________________________________________________________________\n",
      "block4_conv2 (Conv2D)           (None, 6, 6, 512)    2359808     block4_conv1[0][0]               \n",
      "__________________________________________________________________________________________________\n",
      "block4_conv3 (Conv2D)           (None, 6, 6, 512)    2359808     block4_conv2[0][0]               \n",
      "__________________________________________________________________________________________________\n",
      "block4_pool (MaxPooling2D)      (None, 3, 3, 512)    0           block4_conv3[0][0]               \n",
      "__________________________________________________________________________________________________\n",
      "block5_conv1 (Conv2D)           (None, 3, 3, 512)    2359808     block4_pool[0][0]                \n",
      "__________________________________________________________________________________________________\n",
      "block5_conv2 (Conv2D)           (None, 3, 3, 512)    2359808     block5_conv1[0][0]               \n",
      "__________________________________________________________________________________________________\n",
      "block5_conv3 (Conv2D)           (None, 3, 3, 512)    2359808     block5_conv2[0][0]               \n",
      "__________________________________________________________________________________________________\n",
      "block5_pool (MaxPooling2D)      (None, 1, 1, 512)    0           block5_conv3[0][0]               \n",
      "__________________________________________________________________________________________________\n",
      "global_max_pooling2d_5 (GlobalM (None, 512)          0           block5_pool[0][0]                \n",
      "__________________________________________________________________________________________________\n",
      "dense_43 (Dense)                (None, 512)          262656      global_max_pooling2d_5[0][0]     \n",
      "__________________________________________________________________________________________________\n",
      "dropout_19 (Dropout)            (None, 512)          0           dense_43[0][0]                   \n",
      "__________________________________________________________________________________________________\n",
      "dense_44 (Dense)                (None, 7)            3591        dropout_19[0][0]                 \n",
      "==================================================================================================\n",
      "Total params: 14,980,935\n",
      "Trainable params: 7,345,671\n",
      "Non-trainable params: 7,635,264\n",
      "__________________________________________________________________________________________________\n"
     ]
    }
   ],
…
   "cell_type": "code",
   "execution_count": 219,
   "metadata": {
    "colab": {
     "base_uri": "https://localhost:8080/"
    },
    "id": "dXZyvXByX4Sm",
    "outputId": "48efe3d2-eaab-4db3-c8ed-29a1e27a3c29"
   },
   "outputs": [
    {
     "name": "stdout",
     "output_type": "stream",
     "text": [
      "Model: \"sequential_16\"\n",
      "_________________________________________________________________\n",
      "Layer (type)                 Output Shape              Param #   \n",
      "=================================================================\n",
      "sequential_15 (Sequential)   (None, 48, 48, 1)         0         \n",
      "_________________________________________________________________\n",
      "conv2d_90 (Conv2D)           (None, 44, 44, 64)        1664      \n",
      "_________________________________________________________________\n",
      "conv2d_91 (Conv2D)           (None, 40, 40, 64)        102464    \n",
      "_________________________________________________________________\n",
      "batch_normalization_60 (Batc (None, 40, 40, 64)        256       \n",
      "_________________________________________________________________\n",
      "max_pooling2d_45 (MaxPooling (None, 20, 20, 64)        0         \n",
      "_________________________________________________________________\n",
      "activation_75 (Activation)   (None, 20, 20, 64)        0         \n",
      "_________________________________________________________________\n",
      "conv2d_92 (Conv2D)           (None, 16, 16, 128)       204928    \n",
      "_________________________________________________________________\n",
      "conv2d_93 (Conv2D)           (None, 12, 12, 128)       409728    \n",
      "_________________________________________________________________\n",
      "batch_normalization_61 (Batc (None, 12, 12, 128)       512       \n",
      "_________________________________________________________________\n",
      "max_pooling2d_46 (MaxPooling (None, 6, 6, 128)         0         \n",
      "_________________________________________________________________\n",
      "activation_76 (Activation)   (None, 6, 6, 128)         0         \n",
      "_________________________________________________________________\n",
      "conv2d_94 (Conv2D)           (None, 4, 4, 256)         295168    \n",
      "_________________________________________________________________\n",
      "conv2d_95 (Conv2D)           (None, 2, 2, 256)         590080    \n",
      "_________________________________________________________________\n",
      "batch_normalization_62 (Batc (None, 2, 2, 256)         1024      \n",
      "_________________________________________________________________\n",
      "max_pooling2d_47 (MaxPooling (None, 1, 1, 256)         0         \n",
      "_________________________________________________________________\n",
      "activation_77 (Activation)   (None, 1, 1, 256)         0         \n",
      "_________________________________________________________________\n",
      "flatten_20 (Flatten)         (None, 256)               0         \n",
      "_________________________________________________________________\n",
      "dense_47 (Dense)             (None, 128)               32896     \n",
      "_________________________________________________________________\n",
      "batch_normalization_63 (Batc (None, 128)               512       \n",
      "_________________________________________________________________\n",
      "activation_78 (Activation)   (None, 128)               0         \n",
      "_________________________________________________________________\n",
      "dropout_21 (Dropout)         (None, 128)               0         \n",
      "_________________________________________________________________\n",
      "dense_48 (Dense)             (None, 7)                 903       \n",
      "_________________________________________________________________\n",
      "activation_79 (Activation)   (None, 7)                 0         \n",
      "=================================================================\n",
      "Total params: 1,640,135\n",
      "Trainable params: 1,638,983\n",
      "Non-trainable params: 1,152\n",
      "_________________________________________________________________\n"
     ]
    }
   ],
   "source": [
    "model.compile(optimizer='Adam',\n",
    "              loss='categorical_crossentropy',\n",
…
